model_cnn.pth (torch, 434831 bytes, 8 tensors)

conv1.weight f4 [6, 3, 5, 5]
000000 aa 30 3d 3d 19 d3 5d 3d 49 8a 31 3d 29 4c 7c 3c
       0.046188988 0.054156397 0.04334477 0.015399017
000010 63 96 bf bd ce 1e 9c bd 51 b1 f4 bd 2f e4 0c bd
       -0.09354856 -0.07623063 -0.11947883 -0.0343973
000020 9e ed 4b be 1e ac a8 3b ef 27 7b be 1b b9 e3 bd
       -0.19914863 0.005147471 -0.24526952 -0.111192904
000030 39 16 2a be 90 b4 2d be ac b1 24 be 8f d0 a5 bb
       -0.1661004 -0.1696341 -0.16083401 -0.0050602625
000040 f4 df b4 bd 6c ca 39 be 27 4c df bd ca e0 20 be
       -0.08831778 -0.18143624 -0.10903197 -0.1571075
000050 fc 30 9d bd 95 f3 a8 bd 67 9a 13 be df 4c d4 3c
       -0.07675359 -0.082495846 -0.14414369 0.025915561
000060 ff d7 a8 3c ee ef 02 be d8 e3 b4 bb 8f 20 c0 bd
       0.020610807 -0.12786838 -0.005520325 -0.0938121
000070 87 e6 92 3d ca 44 58 3d 93 93 65 3d 6d 52 14 3d
       0.07172876 0.052799977 0.05604894 0.03621142
000080 39 82 56 3c e7 f1 ea 3d b9 f5 29 bd 48 e4 a7 3d
       0.013092571 0.114719205 -0.041494105 0.08197838
000090 a7 fb 77 bd f6 19 8b 3c 82 41 77 3d 27 8a 1d 3d
       -0.06054273 0.016980153 0.060365207 0.03846183
0000a0 1c 7b b5 bd f2 40 5d bd 73 0c 92 3c ea 45 21 bd
       -0.08861372 -0.054017015 0.017828202 -0.039373316
0000b0 32 91 f6 3d 6a 28 ba 3d 9b 74 82 bd 5c a9 0e 3d
       0.120394126 0.090897396 -0.06369897 0.034829482
0000c0 cc 9a 86 bd 22 c6 eb bc 04 48 83 bc 71 b6 ec 3c
       -0.06572494 -0.028781 -0.01602555 0.028895589
0000d0 7f c1 15 3e b8 51 28 bc 65 89 07 3e 7e b8 d7 3d
       0.14624594 -0.0102733895 0.13236006 0.10533236
0000e0 9d 8d 02 3e c4 b4 d3 3d 9c 45 46 3e aa 7e dd 3a
       0.12749334 0.10337213 0.19362491 0.0016898711
0000f0 a9 f2 f7 3d d2 5f 25 3e 4f 53 c6 3d e3 e0 2e 3e
       0.121068306 0.16149834 0.096838586 0.17077975
000100 14 a4 22 3e 2d a5 59 3d 98 3e c0 3d 94 b5 c1 3d
       0.15882903 0.05313604 0.09386939 0.094584614
000110 95 fb 1e 3e 2d 7b 1f 3d 63 7c 89 3d cf 71 b1 3d
       0.15525658 0.03893583 0.06713178 0.086642854
000120 a6 b4 ad 3d 1a b0 88 3a 29 84 bd bc 2f 1a 32 bc
       0.084817216 0.0010428459 -0.023134308 -0.0108705005
000130 e0 2f f1 bd 60 c0 15 3e 78 53 10 be 40 6a 25 bd
       -0.117767096 0.14624166 -0.14094341 -0.04038453
000140 e1 d0 33 3e 6d f6 1f bd 08 16 bf 3d a6 17 42 bd
       0.1756015 -0.03905337 0.09330374 -0.047385834
000150 2a 77 8b 3c a8 f8 85 bd 8c b3 0f be 7b a7 31 3b
       0.017024595 -0.06541568 -0.14033335 0.0027107883
000160 96 18 84 be 0c 59 01 bd e5 00 42 bd 2d be 01 be
       -0.25800008 -0.031579062 -0.047364134 -0.12670203
000170 6c f5 cc 3c 1e d5 4e be 83 ec 2e 3d b7 63 17 be
       0.02501937 -0.20198485 0.042706024 -0.14784132
000180 d6 cb 81 3d ce 66 db bc a7 da 49 be 75 35 01 be
       0.06337707 -0.02678242 -0.19712315 -0.12618048
000190 6f 4c 8a bd 73 31 43 bd d8 c2 56 3e 61 9b 22 bd
       -0.0675286 -0.04765458 0.20972764 -0.039698962
0001a0 61 63 3c 3e c3 53 47 3e 51 9c c4 3d b3 f3 94 3d
       0.18397285 0.19465546 0.096001275 0.072730444
0001b0 c7 3a 0b 3e d9 cf c6 3d 8c 42 0d 3e c4 fd b0 bd
       0.1359664 0.097076125 0.13794917 -0.08642152
0001c0 e6 63 4b 3e fc 88 96 bd 61 b1 69 3e 38 c3 29 3a
       0.19862327 -0.073503464 0.22821571 0.0006475928
0001d0 e1 b1 9f bc 8e fe 40 3e 4e 43 6e 3d 3f bf e1 3d
       -0.019493999 0.18847105 0.058169656 0.110228054
0001e0 d2 1e c9 3d 95 b2 59 3e ae 27 5f 3e e9 5f b9 bd
       0.09820332 0.2125953 0.2179248 -0.090514965
0001f0 2e 05 7e 3d b3 5d d5 3b 9e 9b 35 be 4a 0b 9e bd
       0.06201666 0.006511414 -0.17735144 -0.07716997
000200 99 16 07 bd 14 ed df bd 09 e4 ad 3c e9 20 66 bd
       -0.032980535 -0.10933891 0.0212269 -0.05618373
000210 3e 4b 30 bd 82 eb 1b be 29 4a 07 bd 08 4f 37 3d
       -0.043040507 -0.15226558 -0.03302971 0.044753104
000220 55 fe 48 be 0d 96 6f 3d a7 1b 6c be ee 56 99 3d
       -0.1962827 0.05849271 -0.23057424 0.07487284
000230 58 11 2c 3d e4 3f cb bd f5 df ea 3d 44 64 84 bd
       0.042008728 -0.099242955 0.11468498 -0.06464437
000240 ff e2 3d 3e 55 68 ee bd a6 46 34 3c dd d2 f4 bc
       0.18543623 -0.116409935 0.011003172 -0.029885704
000250 8d e0 2e be 41 7a d4 bc 30 dc b4 bd 5e 3e 23 be
       -0.17077847 -0.025937201 -0.0883106 -0.1594176
000260 fb db 49 bd 7d 7d 14 be 01 f2 e0 bd 56 9a b2 bd
       -0.049282055 -0.14500995 -0.109836586 -0.087208435
000270 95 c2 d1 bd 03 7f 6b bd a5 5d cd bd e6 6f 0b bd
       -0.10242192 -0.057494175 -0.10027627 -0.03404226
000280 e9 c9 67 bd e2 89 ae bd fd 35 ea bd aa 8e 6b 3d
       -0.05658904 -0.08522393 -0.11436079 0.057509102
000290 dc a0 e3 bc 60 89 0f 3c 96 59 9a 3d 97 14 8f 3d
       -0.027786665 0.00876078 0.075366184 0.06986349
0002a0 fe df f2 3c 21 2e a7 3d 10 5c 4c 3e ba a3 e3 3d
       0.029647823 0.08163095 0.19956994 0.11115213
0002b0 18 ae 6c 3e ac 3e 06 3e c0 b6 0c 3e 6a f6 8d 3d
       0.23113286 0.13109845 0.13741589 0.069317654
0002c0 27 dd 7d 3d 43 da 92 3d 05 73 37 bd 20 5a c0 3c
       0.061978485 0.07170536 -0.044787426 0.023480475
0002d0 ec 82 59 3d 0a 98 eb 3d c6 91 dc 3d 64 58 6f bd
       0.053103372 0.115036085 0.107699916 -0.058433905
0002e0 57 2f ef bd a1 4f e4 3d 5e 1f 17 3e 04 7c 02 bd
       -0.11678951 0.111480005 0.1475806 -0.03185655
0002f0 0c 8b 13 bd d4 44 d4 bd fe 1c a7 3b d6 b4 c9 3d
       -0.036021277 -0.103646904 0.0050998917 0.09848945
000300 12 17 16 3e 88 c1 9e 3d 12 ff 8e bd 62 55 ba bc
       0.14657238 0.07751757 -0.069822446 -0.022745792
000310 41 aa 9c bd d4 70 8b bd 67 01 82 3d 78 e3 95 3d
       -0.07649661 -0.0680863 0.06347924 0.07318777
000320 79 aa 3d 3e e1 26 d4 ba 9d 00 c4 bc c3 21 28 3d
       0.18522061 -0.0016185903 -0.023926074 0.041047823
000330 a6 9e 4f bc 40 d1 29 3e 7a 91 47 3e 2e 02 cf 3c
       -0.012672102 0.16583729 0.19489089 0.025269594
000340 13 de 90 3c de fd 6c 3d 9e 2c 8c 3d 93 07 f9 3d
       0.017684018 0.057859294 0.068444476 0.12159648
000350 97 63 41 3e e3 3c 2f bd c0 3e b7 bd 2c 7c e2 bc
       0.18885647 -0.042782675 -0.089475155 -0.0276471
000360 7a be b5 3d b4 1c cb 3d 9a a7 c2 bd 45 c5 e5 bd
       0.08874221 0.09917584 -0.09504624 -0.11219267
000370 18 82 6a bc a4 ec 0e 3d 41 e7 be bd 56 c7 25 be
       -0.014313243 0.034893647 -0.09321452 -0.16189322
000380 06 5b 03 be 0d 6c 39 3e 90 cd 2b 3e d3 4f 55 3e
       -0.12827691 0.18107624 0.16777635 0.20831232
000390 27 b2 9b bd 09 48 ee bc 0c 82 6b bd 18 d0 43 bd
       -0.07602339 -0.029087083 -0.05749707 -0.047805876
0003a0 32 85 f3 bd 14 a4 7f bd 66 7f b5 3d fa a8 d5 bb
       -0.11890639 -0.062412336 0.0886219 -0.0065203877
0003b0 c4 64 8c be 6c 4a 28 be f5 37 3c be a6 b7 c1 bc
       -0.27420628 -0.1643464 -0.18380721 -0.02364714
0003c0 6b 1f 2e 3d 74 c4 6e bc 09 fb e1 bc d6 c2 7c bd
       0.04251043 -0.014573205 -0.027585523 -0.061709248
0003d0 d2 0d 14 3e 3c 59 ba 3d 7a 99 fb 3d 96 c8 91 3d
       0.14458397 0.09099051 0.12285133 0.07118337
0003e0 1b d1 22 3e 0d 0b 80 bd 9a 9c 07 3e 37 91 ad 3d
       0.1590008 -0.06252108 0.13243333 0.08474963
0003f0 a2 58 1e 3e ee 29 47 bc db 81 ed bc ed 48 4b 3d
       0.15463498 -0.012155993 -0.028992584 0.049630094

conv1.bias f4 [6]
000000 60 93 c5 3d 48 ba de 3d ca 68 12 be 14 65 da 3a
       0.0964725 0.10875374 -0.14297786 0.0016662204
000010 5c 09 3b 3e 85 be 92 bd
       0.18265289 -0.07165245

conv2.weight f4 [16, 6, 5, 5]
000000 40 99 bd 3b 76 d0 42 be 3e 8c 79 be 9c 3d 29 be
       0.005786091 -0.19024834 -0.24369904 -0.16527408
000010 d3 5a a0 bd 10 21 02 3e b6 52 05 be 40 d3 d0 bd
       -0.07829823 0.12707925 -0.13019833 -0.10196543
000020 59 99 ea bd fb cb 0c bc 5e 47 b5 3d 24 4a 98 bd
       -0.1145503 -0.008593555 0.08851503 -0.07436016
000030 47 04 e8 bd 6d e3 53 be e2 15 4e bd 2c 29 24 3d
       -0.11328941 -0.20692225 -0.050313838 0.040078327
000040 c1 99 ac bc fb be 5c bc f4 f3 a6 bc da fa d7 bd
       -0.02106941 -0.013473268 -0.020379998 -0.10545893
000050 c4 ee f6 3d 4a 51 9c bc 89 02 b5 3c 52 b7 bc bc
       0.1205726 -0.01908173 0.022095935 -0.023036633
000060 ca 3b a9 b9 94 3d 1a be 80 63 51 bc 71 17 0d 3d
       -0.00032278738 -0.15062553 -0.01278007 0.034446184
000070 cc a1 4d be fd 24 c0 bc 7e 14 eb bd 04 61 87 be
       -0.20081252 -0.023455137 -0.11478518 -0.26441205
000080 64 ec 8e bd b6 44 2b be 40 97 66 bd 0a 11 8c bd
       -0.06978682 -0.1672543 -0.056296587 -0.068391874
000090 6a 76 f4 bd 5f d3 1b be c1 d0 c5 3d 8f 67 c1 bd
       -0.11936648 -0.1521735 0.09658957 -0.0944358
0000a0 ea 87 30 be 04 58 4f 3b 69 56 ec bd a3 98 e2 b9
       -0.17239347 0.0031638155 -0.11539919 -0.00043219802
0000b0 67 20 d1 3d 70 56 c8 3d ce 9a 26 bd c2 88 28 bc
       0.102112584 0.09782112 -0.040674977 -0.010286512
0000c0 e7 14 0c bd d8 7c 52 3e be 50 02 3e d7 83 43 3d
       -0.03419962 0.20555437 0.12726113 0.047733154
0000d0 a5 dd de bd 41 a6 14 bd 4c bd 9e bd 84 6b f8 bc
       -0.10882119 -0.036291365 -0.07750949 -0.030324705
0000e0 d3 b6 3f 3d 77 e9 38 3c 02 e3 32 bd 2f 6f 15 bd
       0.046805214 0.011286131 -0.043673523 -0.036482986
0000f0 d3 8d 65 3d ee 9b 92 bd 4b 64 d2 3d 99 62 21 bc
       0.056043457 -0.071586475 0.102730356 -0.009850168
000100 fa 8e 07 be cf ca 11 bd 2f f5 1f bd 6a 29 ca bc
       -0.13238135 -0.035593804 -0.039052185 -0.02467795
000110 52 f9 5a 3d 5d 45 41 bd 9f fe ca ba 5c 82 93 3d
       0.053460427 -0.04718529 -0.001548726 0.072025985
000120 b7 39 8a bc 78 a2 91 3d d2 34 f6 3d e6 6a 38 be
       -0.016873224 0.071110666 0.120217934 -0.18009529
000130 6f bb 06 3e 18 e8 d6 3d 29 bd 49 be 21 5e 2a be
       0.13157438 0.10493487 -0.19701065 -0.1663747
000140 ed 98 d3 3d ae ea 00 be 49 e5 24 bc 84 eb 93 3d
       0.10331903 -0.12589523 -0.0100644315 0.072226554
000150 e5 52 7e bd 4b d7 02 bd 50 68 4f 3d 0d c2 90 be
       -0.062090773 -0.0319436 0.05063659 -0.2827305
000160 a4 68 c3 3d 28 58 fe 3d a8 5d 42 be 0b 9b 04 3c
       0.09541443 0.12419158 -0.1898104 0.008093606
000170 db 8f e2 3d dc 0f 0e be a7 2b 61 bd b2 3f 3c bc
       0.110625945 -0.13873237 -0.05497327 -0.0114897955
000180 60 c7 b7 bc 5b 58 a2 bd 7e a7 c1 bc d6 85 87 3d
       -0.022433937 -0.07927009 -0.023639437 0.06617324
000190 be 9b 79 3d 8d bf d2 3d 43 a2 32 3e 6e 53 9c 3b
       0.060939543 0.10290442 0.1744471 0.004770688
0001a0 b1 94 01 be 20 50 ff 3c 11 d0 85 bc e9 88 73 3d
       -0.12654378 0.031166136 -0.016334565 0.05945674
0001b0 26 eb c6 3d 2b 49 d2 bc 3f 8c a9 3d 8c 6a 02 3e
       0.0971282 -0.025669655 0.08278703 0.12735957
0001c0 4b ea 93 be 3c 59 92 3d f2 d0 d5 3d d7 3d c7 3c
       -0.2888969 0.07145926 0.10440244 0.02432148
0001d0 40 61 88 3c 38 d8 20 3d c9 d3 44 ba 66 b0 58 3d
       0.016647935 0.039268702 -0.0007508365 0.0529026
0001e0 e8 c5 ad 3d fe b4 c4 bd 44 a4 08 3e 0c 8b 5e 3c
       0.08485013 -0.09604834 0.13343912 0.013582956
0001f0 ea 3c 1e 3c 55 5f 3b 3e f4 1c 27 bd 14 ca 51 be
       0.009658078 0.18298085 -0.040799096 -0.20487243
000200 15 c1 8d be f5 47 2b be 6a 81 a3 3d 9f 49 6b be
       -0.27686372 -0.16726668 0.07983668 -0.22977303
000210 a1 2f 9b be b0 5b 52 be a7 de b1 bd 45 f6 1b bd
       -0.30309775 -0.20542789 -0.08685046 -0.038076658
000220 47 46 4e be 42 b7 a3 be 5b 97 d7 be 1c ae 73 be
       -0.20143996 -0.31975752 -0.42107663 -0.23796886
000230 e5 7b 01 3d 5c 1e 48 be 9d f3 90 be fa 35 88 be
       0.031612296 -0.19542831 -0.28310862 -0.2660368
000240 e9 9e a3 bd 08 27 0e 3e 2e ff 84 bd b9 c0 71 be
       -0.07989294 0.13882077 -0.06493984 -0.23608674
000250 9b 61 c1 bd ce 50 3e be 77 d6 05 3e 7f 16 b8 3d
       -0.09442445 -0.18585512 0.13070093 0.08988666
000260 83 6f 3c 3d d4 54 e6 bd b9 cc af bd 29 80 8c 3c
       0.046004783 -0.112466484 -0.085839696 0.017150955
000270 a5 7b 6b bd 77 12 b7 bd 4a e7 0b be 0e 3f 90 bd
       -0.057490963 -0.08939069 -0.13662449 -0.07043277
000280 9d e9 5f 3d 18 26 c5 bd e2 62 63 bd f0 1c a0 bd
       0.05466615 -0.096264064 -0.055514224 -0.078180194
000290 da 2e 90 bd 47 12 e1 3c 01 11 88 3d 5e 51 76 3e
       -0.07040186 0.027474536 0.06643868 0.24054477
0002a0 f3 06 40 3e 92 f8 f6 3d 20 d9 9f 3d be 1e a7 3d
       0.18752651 0.1205913 0.07805085 0.081601605
0002b0 7f 85 95 3d 29 35 cd 3d 82 c9 b3 3d 10 67 22 3e
       0.07300853 0.10019905 0.08778669 0.15859628
0002c0 00 1b 97 3d 53 ee 29 3d 2f a7 c3 bb bf 93 89 bc
       0.07378197 0.04148705 -0.0059708576 -0.016794084
0002d0 a3 f8 ee bd 07 68 28 be 16 36 41 be cc 91 3e be
       -0.116685174 -0.16445933 -0.18868288 -0.18610305
0002e0 f2 98 53 be 40 f8 10 be 91 86 ba bc 87 2a a5 bd
       -0.20663813 -0.141572 -0.022769244 -0.08064752
0002f0 68 1d 77 bd 4b 54 df bd a9 5a a2 3d c9 d5 56 3d
       -0.06033078 -0.109047495 0.07927448 0.052449975
000300 a6 ea 98 3b e6 b0 fe 3c 18 2c 67 3b 33 54 22 3d
       0.004666644 0.031090211 0.0035274085 0.03963108
000310 5e 49 ad bc 43 8e 10 3c 18 fd 23 3c 84 ad 20 3d
       -0.021153148 0.00882298 0.010009073 0.039227977
000320 c0 8f 4f bd 03 98 79 be c1 87 89 be 24 26 86 be
       -0.0506742 -0.24374394 -0.26861385 -0.26200974
000330 5c 5c 7c bd 06 d4 1f bc c4 30 23 be 5c c2 69 be
       -0.06161152 -0.00975514 -0.15936571 -0.22828048
000340 fb f2 c4 bd 43 4b ba bd 7c 5d ba 3d 43 3f b1 3d
       -0.09616657 -0.09096386 0.09099862 0.08654644
000350 e2 69 22 3e 29 24 86 3e 4d 0a 1d 3e 73 54 29 bc
       0.15860704 0.26199463 0.1533596 -0.010335076
000360 b2 db fc 3d a5 ac 7c 3e 67 7b 3e 3e ac 4d 28 3e
       0.12346591 0.24675234 0.18601762 0.1643588
000370 e5 fb 9d bc ac 6e 22 3d f4 01 f0 bb cd 8b bc 3d
       -0.019285152 0.039656326 -0.0073244516 0.092063524
000380 47 a0 58 bc 8b 02 65 bd d8 6d ee bd d6 68 d8 bd
       -0.013221807 -0.05591063 -0.11642045 -0.10566871
000390 03 78 bc bd 83 0e 00 3c 40 dc 8d 3d 24 7e 82 bd
       -0.09202578 0.00781596 0.06926775 -0.06371716
0003a0 7f 0f 03 bd b9 fb 89 bc 52 b0 3a 3d ea b9 81 3e
       -0.0319972 -0.016843664 0.04557831 0.25337154
0003b0 ca 88 54 3e f9 b3 98 3e 57 40 7a 3e 9c f7 0b 3e
       0.20755306 0.29824808 0.24438606 0.13668674
0003c0 1c 7e 5d 3e 3c 21 91 3d 90 04 05 3e 38 2b 17 3e
       0.21630138 0.07086417 0.12990022 0.1476258
0003d0 d1 34 c6 3d 63 cb 03 3b 50 a7 a9 3b 59 1f e4 3d
       0.09678043 0.0020110242 0.005177416 0.111387916
0003e0 f4 ae 3f bc 41 c5 43 bd 8b ae 17 bd 44 fb 0c be
       -0.011699427 -0.047795538 -0.03703169 -0.13767725
0003f0 9d 8c 92 bd a6 67 77 3c 1d 18 d7 3b b6 1a f6 bc
       -0.07155726 0.015100395 0.006564154 -0.030042034

conv2.bias f4 [16]
000000 86 0d 9a 3e e0 f3 6a be 46 43 2a bd 5d 28 0d be
       0.30088443 -0.22944593 -0.041568063 -0.13784929
000010 c6 49 29 bc a9 32 9f bd a9 58 a4 3d 1f 1b de 3b
       -0.01033253 -0.077733345 0.08024723 0.0067781354
000020 a5 16 3d bc e5 c2 0e 3e 40 7e 8d 3e 77 dc 8b bd
       -0.011541043 0.13941534 0.27635384 -0.0682916
000030 61 57 57 be 7b cf 99 3d ea 8d 15 3e 06 a2 1f be
       -0.21029426 0.07510277 0.14604917 -0.15589151

fc1.weight f4 [256, 400]
000000 75 cd fe bd a9 b4 0b be 49 6f 34 be 99 f8 1b be
       -0.124415316 -0.13643135 -0.17620577 -0.15231551
000010 bd 58 a1 bd 1e c9 0f be dd 64 df bc 97 e9 68 3d
       -0.078782536 -0.14041564 -0.027269775 0.056863394
000020 69 46 99 3d 6d f7 1b 3e 0e 36 ae 3d 45 e1 da 3d
       0.07484133 0.15231104 0.08506404 0.10687498
000030 e3 9f a7 bd 8b 33 fc bc 67 b8 2f 3d 74 15 0a 3e
       -0.08184793 -0.030786296 0.04290047 0.13484746
000040 07 2d 06 3e 6a 49 49 bd 3e 3a 8b bd 76 fb 3e bc
       0.13103114 -0.04914228 -0.06798218 -0.011656633
000050 43 e0 4e 3e 73 85 b4 3d 45 ff bd 3d 62 6c 33 be
       0.20202737 0.08814516 0.092772044 -0.17521814
000060 8e 18 94 3d 7e 16 63 be 38 35 32 be 0c 75 63 be
       0.07231246 -0.22176549 -0.17403114 -0.22212619
000070 3c 34 db bd 92 d7 6a bd 3d 42 34 be c2 29 d4 bd
       -0.10703322 -0.05733449 -0.17603393 -0.10359527
000080 99 9d 1b be c9 62 58 be 38 29 bc bd 7f 5d d2 3d
       -0.15196837 -0.21131434 -0.09187549 0.10271739
000090 74 01 33 3e 09 ed 86 bc fc 61 56 be f8 14 bb bd
       0.17481023 -0.016470449 -0.20935816 -0.09134859
0000a0 34 55 5c 3d 7a f3 2d 3e 96 f1 fb bc f2 f4 86 be
       0.053792194 0.1698741 -0.030754846 -0.26358753
0000b0 dd 15 a6 bd b8 6e d8 bd 78 f3 a4 3d 2a ff 66 bc
       -0.08109639 -0.10567993 0.080542505 -0.014098922
0000c0 76 99 70 bd 7c 24 6e 3d 23 48 7a be bf 12 0a be
       -0.0587401 0.058140263 -0.2444158 -0.13483714
0000d0 2e 11 24 3d 47 74 89 3e dd 88 01 3e 24 01 4e 3d
       0.040055446 0.26846525 0.12649865 0.050294057
0000e0 cd 79 9d 3c b8 f8 c5 3d 39 4d 84 3e 66 82 15 3e
       0.019223118 0.0966658 0.25840166 0.14600524
0000f0 be d2 6e 3d 02 61 68 bd e8 89 dd bd 20 a3 23 3e
       0.05830645 -0.05673314 -0.10817319 0.15980196
000100 76 f6 98 3d 7d 4a b0 3d 11 db c1 bd 07 59 19 be
       0.07468884 0.086079575 -0.09465612 -0.14975367
000110 45 07 13 bd 7f 73 5f 3d dc 79 3d 3e 2d 8a 32 bd
       -0.035895605 0.054553505 0.18503517 -0.043588806
000120 93 fc 5e be 91 37 d8 bd df 6d 19 3d bf 5f 02 3e
       -0.21776037 -0.105574735 0.037458297 0.12731837
000130 68 c5 71 3e e3 46 1a 3e e4 5c 77 3e 24 12 3f 3e
       0.23610461 0.15066104 0.24156529 0.18659264
000140 55 88 7e 3e 97 42 ff 3d a7 31 95 3b 56 bb 11 bc
       0.24856694 0.12463873 0.004553038 -0.008894762
000150 ff 88 df 3d 3a f6 18 3e be 1a 8e 3b 0c 78 d3 bd
       0.10914802 0.14937678 0.004336684 -0.103256315
000160 5a 9c 22 bd fc c0 68 bc 4b ad e4 3d 6f 48 da 3c
       -0.03969989 -0.014206167 0.111658655 0.026645867
000170 b0 70 ee 3d 49 12 dc 3d 67 02 64 3d 1b 2f 96 bd
       0.11642587 0.10745675 0.055666354 -0.073332034
000180 d1 c1 de bd 37 db f0 3b d8 6c a4 bd 66 44 aa bd
       -0.10876811 0.007350351 -0.08028573 -0.08313827
000190 6e d0 a2 bc 59 e3 60 3c b6 1c 9c bc a4 09 a1 3d
       -0.019874778 0.013726079 -0.01905666 0.07863167
0001a0 69 ce ed 3c 0a c6 8a bd 6e 41 c4 bd a5 10 45 be
       0.029029088 -0.06776054 -0.09582792 -0.1924463
0001b0 14 a4 06 be 4b 73 24 bd f2 5d 0a 3d e0 d8 30 bc
       -0.13148528 -0.040149014 0.033781 -0.0107938945
0001c0 0e ed 75 be ee c2 51 be f7 75 90 bd cf 61 b0 bc
       -0.2401621 -0.20484516 -0.0705375 -0.021531014
0001d0 44 a2 be 3c 21 a1 57 bd 85 d9 11 bd 54 e9 82 bd
       0.023270734 -0.0526439 -0.035607833 -0.0639216
0001e0 7d 25 19 be fc 8b cb bd 60 3c 80 3d f0 a8 ed bc
       -0.14955707 -0.09938809 0.062615156 -0.02901122
0001f0 26 10 c8 bd e3 71 c3 bd 39 05 11 3d 59 1d aa bd
       -0.09768705 -0.095432065 0.03540537 -0.08306379
000200 14 a3 a5 bc 33 d4 d3 bd be 04 82 be d1 6c a7 bd
       -0.020219363 -0.10343208 -0.25394243 -0.08175052
000210 4f 7e 8c ba b4 db 26 3d 56 cf 1e bd a8 e1 c4 be
       -0.0010718795 0.04073687 -0.03877195 -0.38453412
000220 74 00 02 be dc 24 01 be ff e7 9f be 7e b9 a5 bd
       -0.12695485 -0.12611717 -0.31231686 -0.080920205
000230 eb c9 93 be 63 25 63 bd 0c 88 bc 3c 41 15 71 be
       -0.2886499 -0.055455577 0.023014091 -0.23543264
000240 90 bb 4f be 48 6c 12 be 08 db d4 bb f1 34 7e 3d
       -0.20286393 -0.14299119 -0.006495837 0.062062208
000250 3a 3e 0b be d7 6c 9b bd e5 f5 0c be be 93 1e be
       -0.13597956 -0.07589119 -0.13765676 -0.15486047
000260 aa ea 5d be 7e a9 0e bd fc f1 bf 3c b8 32 7c be
       -0.21671548 -0.03482961 0.023430817 -0.24628723
000270 34 a9 2b be 25 7c aa bd 9b 96 a4 3d 2e ce b7 3c
       -0.16763765 -0.0832446 0.08036538 0.022437181
000280 f4 27 a2 bd 32 af 95 bd 4b 16 95 3d 95 3d de 3d
       -0.07917777 -0.073088065 0.07279643 0.108515896
000290 03 40 ba 3d 64 0a 88 3d 29 c4 67 3d de 8a 0e 3e
       0.090942405 0.06642607 0.056583557 0.13920161
0002a0 e4 4c 2b 3e d7 e0 01 3e 08 79 fb 3c 2b f0 a2 3c
       0.1672855 0.12683426 0.03069736 0.019889912
0002b0 3e a5 95 3d 93 4b 31 bd 7b cf 84 3d e0 d6 a8 be
       0.07306908 -0.043284964 0.06484886 -0.32976437
0002c0 d3 24 8e bd 9b b4 26 be 1b c9 52 be 1f b4 eb bd
       -0.069406174 -0.16279833 -0.20584528 -0.11508965
0002d0 9d c0 b4 be a7 a0 cd bd 49 a3 80 bd ba 23 d6 bd
       -0.35303202 -0.10040408 -0.06281144 -0.10456033
0002e0 e0 3c 30 bd d1 ef b6 3c 4e c9 0b 3d 68 97 51 3c
       -0.043026805 0.02233115 0.034127526 0.012792446
0002f0 3c 0d d2 bc 72 3d 8d bc cc 3b b7 bc 99 97 d0 bc
       -0.025641076 -0.017241213 -0.02236738 -0.025462912
000300 b7 44 97 3d 5a 17 a0 3d 83 03 1c bd 0e 84 ae 3d
       0.07386153 0.07816954 -0.038089287 0.08521281
000310 22 c6 7b bd 81 71 55 3c c3 00 1f 3d f9 44 99 3d
       -0.06146825 0.01302755 0.038819086 0.074838586
000320 41 67 8d 3e 44 01 f6 3d 6e 65 cd 3d 97 88 92 bd
       0.2761784 0.1201196 0.10029112 -0.07154959
000330 f4 f9 ed 3c 00 fe 77 3e de 11 47 3e a6 26 1a 3e
       0.029049851 0.24217987 0.1944041 0.15053806
000340 b4 1e 89 3d e5 55 08 bd 96 ff a7 3d e7 11 f8 3b
       0.06695309 -0.03328504 0.08203046 0.0075704935
000350 de fa 7b bc 21 6d 92 bd 3b e9 c3 3c 24 f6 3a be
       -0.015379636 -0.07149721 0.023914924 -0.18257958
000360 75 3b f3 bd 76 23 c6 bd ec a2 db bd 41 c5 96 3d
       -0.11876575 -0.096747324 -0.10724434 0.07361842
000370 97 bc b8 bc 21 43 7a bd a6 a5 45 be 1b c6 5c bd
       -0.022550864 -0.061099175 -0.19301471 -0.053899866
000380 2e 18 6b bd 5f 1a 55 3d 0a d8 09 bd f5 9b 09 3e
       -0.057396106 0.052027103 -0.033653297 0.13438399
000390 b0 4a 2e 3e 98 9d 18 3d 72 2d 13 3e 0a f4 58 bd
       0.17020679 0.037259668 0.14372805 -0.05296711
0003a0 06 3a f7 bc b8 0d ed 3d 65 a0 42 3d 58 d3 37 3e
       -0.030179035 0.11574882 0.047516245 0.17951715
0003b0 c1 90 0e be 6c c3 84 be 18 53 1e be 7e 0e 17 3d
       -0.13922407 -0.25930345 -0.15461385 0.036879055
0003c0 8a 0a 5c 3e ad c0 76 be 09 ac 43 be 88 4a a6 bd
       0.21488395 -0.24096937 -0.19108595 -0.081196845
0003d0 fc 24 4e be d0 5d b6 3d 3b ee 4d bc ed d2 b0 3d
       -0.20131296 0.08904612 -0.012569006 0.08633981
0003e0 69 78 f1 bd ff 24 35 be 42 26 f7 3d 4f 2f 84 3a
       -0.117905445 -0.17689894 0.12067844 0.00100849
0003f0 3f 81 35 bd f0 be c1 3c 19 45 c2 3c dc c5 0a bd
       -0.04431271 0.023650616 0.023714589 -0.0338801

fc1.bias f4 [256]
000000 0b 13 6c bc d2 f3 43 bc 3a ec 25 bd fe f6 3f 3e
       -0.014408837 -0.011959987 -0.040508486 0.18746564
000010 f9 e9 8d 3e 7c e3 c1 bc 55 e9 ac bb 1e 33 d6 bd
       0.2771757 -0.023668043 -0.005276839 -0.104589686
000020 24 cb 5e bb 99 21 ab 3d ad 82 8e 3e 2d ae 98 bd
       -0.0033995593 0.083560176 0.27834073 -0.074550964
000030 77 54 25 3d 6b ba 60 bc 63 24 e6 bd da 5a f3 3c
       0.040363755 -0.0137163205 -0.11237409 0.029706407
000040 ad 64 85 3e 22 8e 20 be 6e 6d 3f be 55 d5 87 bd
       0.26053372 -0.1567922 -0.18694088 -0.06632487
000050 9f 15 37 3e 5a cb 4d 3e 71 07 05 bd 12 be 40 bc
       0.17879342 0.20097104 -0.0324778 -0.011764066
000060 69 b2 97 bd c9 32 1f 3b 37 b0 62 bc 38 a8 aa 3b
       -0.07407076 0.0024291745 -0.013835958 0.0052080415
000070 45 1d 03 bb f1 3e 8b bc 32 48 5c 3e 9a 1f 1a 3e
       -0.002000646 -0.016997786 0.21511915 0.15051118
000080 41 d2 86 bd 19 d0 42 bd 3f ab 08 bd 9b aa 6b bb
       -0.065830715 -0.04756174 -0.033366438 -0.0035959843
000090 19 45 57 be 6a 9d 79 bd 76 0f be 3d f2 26 88 3e
       -0.21022452 -0.060941137 0.09280293 0.26592213
0000a0 19 ab fe 3e 95 0c 72 3e 28 03 05 bd 64 e2 a4 bc
       0.49739912 0.23637612 -0.032473713 -0.020127483
0000b0 44 a0 60 be ac 2f b5 bc 31 11 82 be b8 ff 90 bd
       -0.21936136 -0.022117458 -0.2540374 -0.070800245
0000c0 6e 02 7f 3e a4 0e c5 3d e6 e0 56 bd ab d5 0e 3f
       0.2490327 0.09621933 -0.052460574 0.5579478
0000d0 35 97 3b 3e b7 20 86 bd ee 36 dd b8 b4 1b c1 bd
       0.183194 -0.065492086 -0.00010548333 -0.09429112
0000e0 9d 10 88 3e 00 c1 18 bd 01 6e 34 3e 61 c1 4a 3d
       0.26575175 -0.037293434 0.17620088 0.049500827
0000f0 d4 24 97 bc ab 62 6a 3d 05 15 1c bd db b2 1f 3d
       -0.018450178 0.057223003 -0.038105983 0.03898893
000100 80 2c 02 bd df b6 dc 3e 0f 7b 59 3d ce 48 05 3f
       -0.03178072 0.4310827 0.053095873 0.52064216
000110 fc 58 18 3f a4 12 1d bd e0 5d a6 bd 40 25 76 3c
       0.5951078 -0.038347855 -0.08123374 0.0150235295
000120 06 b9 b1 bc a5 e0 76 3e 35 64 a5 3e c9 36 9b bd
       -0.021694671 0.24109133 0.32303014 -0.07578809
000130 d2 48 32 be c9 be de bc a6 01 36 3a 25 00 a6 3e
       -0.17410591 -0.027190583 0.00069429947 0.32421985
000140 eb c7 03 3f 84 ea 32 bc 81 75 18 3f c2 d7 8e bb
       0.51476926 -0.010920171 0.59554297 -0.0043592164
000150 65 e6 83 bd 57 81 d7 3e 4c 6d 27 bd 03 89 94 be
       -0.06440429 0.42090866 -0.040875718 -0.29010782
000160 04 6c 3f 3e 5c ef 8a 3e 39 71 ba 3b df 68 f9 38
       0.18693548 0.27135742 0.0056897667 0.00011892779
000170 79 97 4a bd 8a f9 3f 3e fb 66 2f 3e c8 33 31 3e
       -0.04946086 0.18747535 0.17129128 0.17304909
000180 cd 16 0d 3e 6b 64 8d bd 68 11 be bd 98 4b 05 3e
       0.13778229 -0.06903919 -0.09280664 0.13017118
000190 41 31 26 3e 01 8f 14 3e 08 df ba 3e 83 d9 c3 bc
       0.16229726 0.14507677 0.36498284 -0.023907429
0001a0 ec a3 93 3e ef 9f 94 3c d3 17 d6 3d 1d 71 59 3e
       0.28836 0.018142669 0.10453763 0.21234556
0001b0 11 17 b3 3d 76 2a 2e be 9f 65 c9 3e a7 16 0c 3b
       0.08744634 -0.17008385 0.39335343 0.0021375807
0001c0 d0 22 df be 75 e0 3a 3e c7 8b 4c 3e 1e c2 74 bd
       -0.43581247 0.18249686 0.19975196 -0.059755437
0001d0 72 18 85 bd 26 39 7a bd f7 dc d2 3d 93 0f a5 3d
       -0.06498803 -0.061089657 0.10296052 0.08059611
0001e0 ba cf 95 3e 0b bb 96 3e cf 3a 13 bd 2f 83 e3 3b
       0.29260045 0.29439577 -0.035944756 0.0069431285
0001f0 ea 30 37 bd 12 29 9a 3c 33 80 e1 3d be 47 d6 3c
       -0.044724382 0.018818412 0.1101078 0.026157256
000200 4e 39 e4 3d 3a d8 3e be f7 68 03 3f a8 97 98 bd
       0.111437425 -0.18637171 0.5133204 -0.07450801
000210 f2 7d 04 3e 21 64 a5 bd 27 f2 cd 3d e2 bd e2 bb
       0.1293867 -0.08075739 0.100559525 -0.0069196085
000220 47 f3 1c bb d6 b6 50 be 8e 8b 92 3e 54 b6 82 3c
       -0.0023948716 -0.20382246 0.28622097 0.015956081
000230 e9 4e d3 3e 25 96 ce bc 1e 39 ce ba be 7e 26 3d
       0.4127114 -0.025218079 -0.0015733575 0.040648215
000240 87 e4 b9 bd 1b fb 04 3f 41 80 d2 bd 37 73 b1 bc
       -0.09076791 0.51945657 -0.10278369 -0.021661384
000250 b5 9b 75 3e 01 da 02 bd 96 cb 56 bd 8f 6e 99 bd
       0.23985179 -0.031946186 -0.05244025 -0.074917905
000260 27 8c 2f bd ed bd 61 3d af 1d 0d be cc c8 91 3e
       -0.04285827 0.055112768 -0.13780855 0.28473508
000270 47 0d 67 3e e7 38 1f bd 1b 69 e1 bb 46 4a ca 3d
       0.22563659 -0.038872626 -0.0068789846 0.09877448
000280 9b 8f aa 3e 1c f9 4f be 9b be 9b 3e 11 2c 99 3e
       0.33312687 -0.20309871 0.30418858 0.29916432
000290 7c 96 97 3e 52 b3 ee 3d 77 a0 be 3d 2b 80 2a bd
       0.29606998 0.116552964 0.0930795 -0.041626137
0002a0 2b 17 ab bc f6 aa 46 be 80 ab 2e be 37 36 d2 3d
       -0.02088507 -0.19401154 -0.1705761 0.10264247
0002b0 95 97 39 bd 05 36 38 bc 5c 7d 0a 3f 2b 6c 8d 3e
       -0.045310576 -0.011243348 0.54097533 0.27621588
0002c0 26 27 f4 3d 7e 53 1c 3d 98 ba e5 3d af 72 73 bd
       0.119215295 0.03816556 0.112172306 -0.059435543
0002d0 6c 6a ed 3d 93 b7 71 bd e6 f1 a0 bd 2f b4 d1 3e
       0.11592564 -0.05901296 -0.078586385 0.40957782
0002e0 6c e2 e9 bd be 63 b3 bd 5f b9 d1 be 0b 9c 6a bd
       -0.1142014 -0.08759259 -0.4096174 -0.05727772
0002f0 f9 d7 8c be 9e 08 e6 3b a1 31 75 be 91 2a c6 bb
       -0.27508524 0.00702007 -0.23944713 -0.006047555
000300 b8 a3 65 3e f3 b8 93 3e d1 48 9f 3e a1 1c 00 bd
       0.22425735 0.28852043 0.31110242 -0.031277303
000310 e6 46 80 be 95 df d5 3d 6e 1e 2e bd 6c 3a 3d bc
       -0.2505409 0.104430355 -0.04250949 -0.011549573
000320 f6 10 1e 3f 5d d2 77 bd 99 c5 c6 3a 27 32 ca 3d
       0.6174463 -0.060503352 0.001516509 0.09872847
000330 74 6e 7b be f0 38 95 3e ef fb 92 3e a2 26 97 bd
       -0.24553853 0.29145002 0.28707835 -0.073804155
000340 26 08 c8 3e 73 75 8f bd ea 90 b9 bb 4c 0e a2 3e
       0.39068717 -0.070048235 -0.005663027 0.31651533
000350 59 10 79 3e ab e5 19 3d f3 63 5b bd 54 cf 3f 3e
       0.24322642 0.037572544 -0.053562116 0.18731433
000360 82 18 1a 3e 6a 69 f9 3e 73 be 5c 3c ab 49 f2 3d
       0.15048411 0.48713237 0.013473141 0.11830457
000370 8d 50 27 bc 9f 8a 31 be 56 e1 59 be eb 52 06 3d
       -0.010212076 -0.17338036 -0.21277365 0.03279392
000380 d2 a5 5f bc 17 39 89 3e 34 aa 23 bd fe f1 c7 bb
       -0.0136503745 0.2680137 -0.03995724 -0.0061018458
000390 56 90 bc 3e 4e 1f 11 3f 98 c0 93 bd 44 92 09 3c
       0.3682887 0.5668839 -0.07214469 0.008396689
0003a0 73 46 aa 3e 77 7a 90 3d 72 94 62 3e bb 11 cb bc
       0.33256873 0.07054608 0.2212694 -0.024788728
0003b0 4a 56 1d bd 16 43 43 3e 76 4e d3 3c fb aa 8b bd
       -0.03841237 0.1906856 0.025794249 -0.06819721
0003c0 65 53 8c 3e 3d fe af 3b 3d 19 c1 bd 8c fa a4 3d
       0.27407375 0.0053708837 -0.09428642 0.080556005
0003d0 cc 86 62 3e 60 78 9a 3c 9c c9 d1 3c 41 ec a2 bc
       0.22121733 0.018856227 0.02560883 -0.019888045
0003e0 91 2f 19 bd e1 81 9d bd c6 c1 67 3e 5e be a9 3e
       -0.03739888 -0.07690788 0.22632512 0.3315305
0003f0 9f e7 68 bd a7 2b ef 3d 79 88 ec bb fa e3 98 3d
       -0.056861516 0.11678248 -0.0072184172 0.07465358

fc2.weight f4 [10, 256]
000000 e7 72 d9 3a a5 0f ee 3c b7 b5 1b bd 33 90 2c bd
       0.001659003 0.029060194 -0.038015094 -0.042129707
000010 d2 75 2c bd 24 65 10 bd 88 99 94 3b 8e 61 8d 3d
       -0.04210455 -0.035252705 0.004534904 0.06903373
000020 05 d5 12 3d 00 16 d8 3d a8 ac e2 3d c4 e1 fe 3c
       0.035847683 0.10551071 0.11068088 0.031113513
000030 c5 2b 29 be ff 3f 67 bd 87 e5 79 3d 75 9e 3e be
       -0.16520603 -0.056457516 0.06100991 -0.18615134
000040 7b dc 19 be 74 11 89 3d c4 a6 50 3d 99 a3 f5 bc
       -0.15025513 0.06692782 0.05094029 -0.029985236
000050 13 e8 b0 3d 25 77 3e be 83 78 07 bd 4e 6d 55 3d
       0.08638015 -0.18600138 -0.033073913 0.052106194
000060 3b 83 36 bd 37 d6 0a 3d 7c be 46 bd b4 53 47 3d
       -0.044558745 0.033895697 -0.048521504 0.04866381
000070 fe f0 50 3c fa c2 83 bd b3 b8 aa 3d e5 b6 aa 3d
       0.0127527695 -0.06433673 0.0833601 0.083356656
000080 90 d4 bf bd d5 d9 5d bd 19 c7 a0 bc 09 bd 54 3d
       -0.09366715 -0.05416282 -0.019626187 0.05193809
000090 8b 77 04 3e 43 1e 40 bd 64 b9 63 be 10 92 ba 3d
       0.12936227 -0.04690386 -0.2223869 0.091098905
0000a0 4c dd 03 3e 64 09 c9 bd e2 fa 98 bc 0e 3b 05 be
       0.12877387 -0.09816244 -0.018674318 -0.13010809
0000b0 fa 06 8e 3d 48 d0 02 be 81 4e 0e be 3d 5d f0 3b
       0.069349244 -0.12774765 -0.13897134 0.0073353336
0000c0 63 b7 dc 3d 32 2f a2 3d 94 0e 0f 3c 8d f3 c9 bd
       0.10777166 0.07919158 0.008731503 -0.09860907
0000d0 28 9a 6b be fd 4d 88 bb f2 94 00 bd 66 c9 29 3d
       -0.23008025 -0.0041596876 -0.031392045 0.041451834
0000e0 76 c7 cb 3d 8f e2 fe 3c 4d 73 94 bb 9c 60 1c be
       0.099501535 0.03111389 -0.0045303465 -0.15271229
0000f0 fb 70 ba 3d ff 3d f5 3a 8e 89 d9 3c ef 9b 6c 3b
       0.091035806 0.0018710493 0.026554849 0.0036103686
000100 5e 13 15 3e 86 d7 32 be b9 d7 7f be 84 b3 b4 be
       0.14558169 -0.17465028 -0.24984635 -0.3529321
000110 85 f6 0f 3e ca bb bf bc 17 72 90 bd 75 05 0e bc
       0.14058883 -0.023404974 -0.07053011 -0.008668293
000120 22 5f 19 bd 8d 79 b2 3b ad fe 2c ba e6 b9 6c bd
       -0.03744424 0.005446619 -0.0006599229 -0.057794474
000130 36 35 5a 3d cb c8 94 be 3a 75 4a bd af 14 b6 bd
       0.053273402 -0.29059443 -0.049428202 -0.08890664
000140 e1 da d7 3d f3 28 8b 3c e4 c2 8a be fa c4 8d ba
       0.10539795 0.0169873 -0.27101815 -0.001081615
000150 43 82 aa 3d 31 e0 42 3d dd 7f c1 37 87 42 70 3c
       0.08325627 0.047577087 2.3066934e-05 0.014664299
000160 8d 54 f3 3c fe 80 66 3d 20 4d 44 3d f7 ad 66 bd
       0.029703403 0.05627536 0.047925115 -0.05631825
000170 85 20 d2 bd 2e 71 54 bd 1b aa 8b be 4e c2 26 be
       -0.10260109 -0.05186575 -0.27278218 -0.16285059
000180 4c ce 1e 3e 7c 58 83 bc 1b 9e 96 bd 76 af 2a 3e
       0.15508384 -0.016033404 -0.07354375 0.16668496
000190 3c 06 71 3d 7c 39 8c 3d 3f 60 d2 3d db 79 c2 3c
       0.058843836 0.06846902 0.10272264 0.023739746
0001a0 bd 02 74 bd f4 93 e6 bd 3f f1 57 bd 25 29 68 be
       -0.059572924 -0.112586886 -0.052720305 -0.22671945
0001b0 b7 e1 d9 bc 8c fd f6 bd 02 9e 1a be c0 82 ba bc
       -0.026596887 -0.12060079 -0.15099338 -0.022767425
0001c0 56 75 06 3e ba 44 20 3e 8c 6c 82 3d 3b 5c 7e bc
       0.13130698 0.15651217 0.0636836 -0.015524919
0001d0 12 93 ca 3d bc cc 4b 3e 8b 9a 69 bd e3 62 0f 3e
       0.09891333 0.19902319 -0.05703215 0.14002566
0001e0 b9 c4 48 3d 86 cd bb bd 77 29 94 3b d8 20 08 bc
       0.049015734 -0.0917006 0.0045215446 -0.008308612
0001f0 5b 20 96 bc 46 29 26 bc a4 e0 f3 bd f5 ec ff 3c
       -0.018325975 -0.010141676 -0.11908081 0.03124092
000200 a3 e4 9e 3d 9e ac a8 3d b6 dd 70 bd b6 17 0c ba
       0.07758453 0.08236049 -0.05880519 -0.00053441094
000210 3b bf 59 be a8 f4 d9 bb db 10 cd 3d bc 58 81 3d
       -0.21264355 -0.0066514798 0.100129806 0.06315753
000220 27 d7 2f bd 97 85 1a be 26 b6 22 3e d7 59 1c 3c
       -0.042929795 -0.15090023 0.15889797 0.009542904
000230 82 e5 eb 3d 8e ba 49 bc 02 0b a8 3d f0 dd 57 be
       0.115183845 -0.0123125445 0.082052246 -0.21080756
000240 66 cc a1 3d ce 4b 0c be ec 54 80 3c 99 d6 1b 3d
       0.07900314 -0.13700792 0.015665494 0.038046453
000250 0d 23 81 be 76 be 91 3b 76 af 54 bd 91 f1 b3 3d
       -0.25222054 0.0044477535 -0.051925145 0.087863095
000260 b6 7b 73 bd e3 2a 84 3d 48 18 71 3d a5 51 e6 bd
       -0.05944415 0.064534925 0.058861047 -0.11246041
000270 c4 17 b8 3d 61 4d 68 3c 50 17 7f be b6 bb eb 3d
       0.08988908 0.014178605 -0.24911237 0.115104124
000280 18 35 5b 3d 9e 54 36 3d 57 3c 16 be 93 80 89 bc
       0.05351743 0.04451429 -0.14671455 -0.016784942
000290 c3 a5 07 3e c8 94 79 3d d9 97 9a bd 05 8e e3 3c
       0.13246827 0.060932904 -0.07548494 0.027777681
0002a0 42 0f c3 bc c7 8d ab 3d 80 26 63 bc ec b1 27 3e
       -0.023810986 0.08376651 -0.01386416 0.16376466
0002b0 88 14 89 be 1a 31 c9 bb e0 ca 8d be a3 1a fc 3d
       -0.26773477 -0.0061398866 -0.27693844 0.12309768
0002c0 cf 38 91 be b7 da 60 3d 3a 90 1a 3d eb 53 a2 3c
       -0.28363654 0.054896083 0.0377352 0.019815406
0002d0 75 20 78 3d 1a fa 81 bd a8 85 9e 3d 30 f8 7d bd
       0.06057783 -0.06346531 0.07740337 -0.06200427
0002e0 75 78 8c 3d 6e ba 91 bc b0 7c 68 3d d7 27 13 ba
       0.06858913 -0.017789092 0.056759536 -0.00056135416
0002f0 04 ee 10 3d 1c be ac bd 89 ca 84 3c 76 bf 57 bd
       0.03538324 -0.08434698 0.016209858 -0.052672826
000300 b4 bc ad be db 50 a1 3d af 99 63 be 48 66 4a 3c
       -0.33933032 0.0787675 -0.22226594 0.012353487
000310 ae 04 04 3d 01 b5 34 be 79 e6 7b bc b7 85 9e b9
       0.032231025 -0.17647173 -0.015374773 -0.00030235734
000320 72 c3 f3 3d d4 01 0a 3d 36 a6 d0 3d 17 8f 80 be
       0.119025126 0.03369315 0.10187952 -0.2510917
000330 e0 ad 32 3e 05 e9 49 3c c8 1e 87 3e 40 72 26 3e
       0.1744914 0.012323623 0.26390672 0.1625452
000340 b4 e9 18 be 06 72 bb bb 46 14 9e 3c 56 58 ff bc
       -0.149329 -0.0057203798 0.019296777 -0.031170052
000350 36 e1 83 be 5c 94 d9 3b 0d 33 27 be 4e 63 11 3e
       -0.2575776 0.0066400003 -0.16328068 0.14198038
000360 ee 18 df bd 02 75 c2 3d bd 7d 02 be 2c c0 32 3d
       -0.10893427 0.09494974 -0.12743278 0.0436403
000370 c6 ca 9b bd 49 e3 fc 3d 31 06 60 bb ed 08 40 3d
       -0.07607035 0.12348039 -0.0034183378 0.046883512
000380 ee 3b 74 bd e3 a2 3c be 8b 88 86 bd 6a 64 3f bd
       -0.059627466 -0.18421511 -0.06569012 -0.04672662
000390 3b 65 49 3e b0 c3 e1 3d c2 06 f5 3c 34 bc d6 bc
       0.19667523 0.110236526 0.029910449 -0.02621279
0003a0 f0 7a 8a be 4d 21 d0 be 5f 83 76 be f7 62 9f bd
       -0.2704692 -0.40650406 -0.24073552 -0.07782548
0003b0 81 c7 c9 bd 5c 2e 53 3d 53 3a 11 3c c9 fc 8c bb
       -0.098525055 0.051557884 0.008864003 -0.0043025953
0003c0 69 09 8b bc c1 53 10 3d 1b e0 69 bc 7b 59 2d be
       -0.01697226 0.035236124 -0.014274622 -0.16928665
0003d0 5b 31 90 3d a6 44 6d bc 69 22 04 bd c0 80 ab 3d
       0.07040664 -0.014481699 -0.03225938 0.083741665
0003e0 bb 59 01 bd 32 f3 b1 39 be 00 71 bd f8 95 e8 3d
       -0.031579714 0.00033941265 -0.0588386 0.11356729
0003f0 07 0a a2 3a 0c 5c ed 3d 09 6b ac bc 95 cd 52 bd
       0.0012362608 0.11589822 -0.021047132 -0.05146559

fc2.bias f4 [10]
000000 06 66 a8 be 46 b0 f7 bd 1f ec 04 be b1 1b 36 3e
       -0.32890338 -0.12094168 -0.12980698 0.17784001
000010 e4 92 9b 3e 77 5f 65 be 5a 2c 61 3d fe 5e 84 be
       0.30385506 -0.22399698 0.054973938 -0.25853723
000020 0b b3 5b 3e f4 dc 29 3e
       0.21455018 0.16588193
